Reinforcement_Learning/RL_Support/DQNagent_sample.pt (torch, 68442 bytes, 18 tensors)

weight f4 [64, 8]
0.51330185 -3.709355 -0.15585381 0.8620929 1.7822216 -0.030295663 0.06453203 0.43488017
-0.3112599 1.437412 0.7133044 -0.42202455 -0.21267287 -0.43768132 -0.59597194 0.6501297
0.7743662 0.32553437 0.02007048 -0.91275877 0.33892193 0.93777573 -0.032953657 0.5113888
-0.20308186 -0.15160315 0.4508435 -0.83074766 0.22800386 -2.5112586 -2.2793171 0.42689967
0.60597014 0.01238127 1.8178946 0.54353243 3.0090523 0.6728122 -0.13620465 0.20190404
1.7871661 1.2685676 -1.7977684 -0.7949085 0.5066244 -1.250851 -1.9308052 -0.1295695
0.41335976 -1.1877792 -0.29674396 -0.1817565 0.9375966 0.57373375 1.0948428 -0.33924523
0.78060097 1.1872964 -0.6026128 -1.8523613 1.879107 0.40210602 0.16728014 0.2170436
-1.4489719 0.32423422 0.49744153 -0.95413035 0.15368243 -0.19446641 0.11497433 0.7446302
-0.24980846 0.68134475 -0.90708673 0.22131112 1.2521834 -1.9481224 -1.3068777 0.85647756
-0.84500664 -2.0093799 0.051562954 0.48606402 0.43014696 -0.3033888 1.4347415 0.06528482
2.1813643 -1.8641096 0.17629233 -0.07665527 -0.7254836 -0.30807984 -1.076367 -0.24931857
1.0390513 -5.0387053 -1.0085801 -1.9691122 0.799655 0.8249637 0.022495499 -0.37829453
-0.5547887 -0.06214668 -0.4598623 -1.0003574 0.9121431 0.60076314 -0.2742075 0.5783412
-1.483731 -0.46078056 -1.1380525 -0.21377811 -1.2711155 0.003388159 -0.7655536 -0.26836178
-0.85248095 1.2302294 -0.47255394 0.8929261 -1.3230959 0.51813805 0.423521 0.21658939
0.48411813 0.058579315 0.23155673 0.76881945 -1.104001 -0.33819422 -0.9931404 0.8477896
0.40798706 -0.15583128 0.37815523 1.9391241 -1.5147351 -2.311039 -1.0535423 0.5401049
-0.57866836 1.4758413 0.61907214 -1.5144795 -1.8881234 1.0434858 -0.05251747 0.36074677
0.40323362 -0.5727019 -0.533441 1.7156037 -0.35065407 -2.7521594 -0.22840177 -0.0901616
0.84803414 0.64698905 0.4042872 -0.98118484 0.5020009 -0.7613145 -1.7898189 -1.2768371
0.018843995 -0.16601789 -0.83616334 -0.39757952 -1.3862728 -0.97101814 0.7588505 0.55951244
1.4168851 -0.15110695 0.3148318 -0.80217713 -1.8765277 -0.49267265 0.13054623 0.49175358
-0.28601164 0.70365167 -0.93620855 -0.054971322 0.96785164 -1.5513844 0.82886195 -1.0493742
0.5732418 -1.9834765 0.78948504 1.8460791 -0.62938523 -1.0213466 0.20543987 0.19890766
-0.5088057 1.4830655 0.39206964 -2.7878692 -0.08906368 -0.23027264 0.064187504 -0.50270015
-0.5692523 0.62034506 0.37124732 -0.9481531 0.2295678 0.5694477 0.28528696 -0.036368657
0.48117414 1.1580014 -0.95104235 1.7855793 -0.082913734 1.1946887 0.11939424 -1.2766074
0.1371029 0.15895273 0.027637806 -0.81660503 0.5319317 1.1230336 0.9478543 0.39586574
0.64052576 0.9455861 1.7250684 -1.1517483 -0.4282677 -0.47251928 0.054726787 -0.10532652
0.46131986 0.60129756 0.15930612 0.37738043 0.6493794 -1.4581506 -2.0218408 -0.7399068
-1.4194007 -0.010637851 -0.44437754 -0.5474678 0.22579081 -0.08689984 0.18753451 0.5693633
00000000: c067 033f 1366 6dc0 2498 1fbe 1fb2 5c3f
00000010: d61f e43f 9c2e f8bc 5e29 843d 9da8 de3e
00000020: 755d 9fbe 1efd b73f 1e9b 363f 9a13 d8be
00000030: ebc6 59be c417 e0be 9e91 18bf e66e 263f
00000040: dd3c 463f 71ac a63e d96a a43c 8faa 69bf
00000050: 2d87 ad3e 1212 703f 6afa 06bd 60ea 023f
00000060: b1f4 4fbe db3d 1bbe f6d4 e63e e1ab 54bf
00000070: d879 693e 76b8 20c0 55e0 11c0 9892 da3e
00000080: dc20 1b3f cfda 4a3c c5b0 e83f f124 0b3f
00000090: 5094 4040 6c3d 2c3f 3b79 0bbe efbf 4e3e
000000a0: dcc1 e43f 6c60 a23f 461d e6bf 207f 4bbf
000000b0: 23b2 013f e31b a0bf a024 f7bf dead 04be
000000c0: e4a3 d33e 2609 98bf d3ee 97be 601e 3abe
000000d0: 5506 703f 37e0 123f cf23 8c3f 8db1 adbe
000000e0: 77d5 473f 54f9 973f d544 1abf 2d1a edbf
000000f0: 9486 f03f d7e0 cd3e 7c4b 2b3e ad40 5e3e
00000100: e977 b9bf 0702 a63e a8b0 fe3e e341 74bf
00000110: ed5e 1d3e 3422 47be a977 eb3d 16a0 3e3f
00000120: cacd 7fbe 9c6c 2e3f d636 68bf 629f 623e
00000130: 8c47 a03f 135c f9bf c547 a7bf 1d42 5b3f
00000140: 5b52 58bf ae99 00c0 ad33 533d 62dd f83e
00000150: 393c dc3e c755 9bbe 9ca5 b73f 0cb4 853d
00000160: 799b 0b40 259b eebf fa85 343e 70fd 9cbd
00000170: 4bb9 39bf a4bc 9dbe 65c6 89bf 5e4d 7fbe
00000180: a2ff 843f 133d a1c0 2719 81bf de0b fcbf
00000190: 31b6 4c3f d230 533f 7b48 b83c d2af c1be
000001a0: a206 0ebf 848d 7ebd 1273 ebbe b60b 80bf
000001b0: 3682 693f 9dcb 193f ed64 8cbe 2b0e 143f
000001c0: e6ea bdbf 6eeb ebbe b4ab 91bf a6e8 5abe
000001d0: eab3 a2bf e00b 5e3b 52fb 43bf b766 89be
000001e0: 313c 5abf 2878 9d3f 97f2 f1be ce96 643f
000001f0: 355b a9bf b2a4 043f bfd7 d83e 9cc9 5d3e
00000200: 55de f73e ddf0 6f3d 351d 6d3e 5ad1 443f
00000210: e84f 8dbf cb27 adbe 733e 7ebf bd08 593f
00000220: aee3 d03e 3c92 1fbe 909d c13e 3835 f83f
00000230: d7e2 c1bf 10e8 13c0 79da 86bf 5144 0a3f
00000240: 9c23 14bf 5ee8 bc3f 837b 1e3f 77da c1bf
00000250: 07ae f1bf f190 853f 8f1c 57bd cdb3 b83e
00000260: a374 ce3e 979c 12bf 978f 08bf e798 db3f
00000270: ee88 b3be 6123 30c0 27e2 69be a5a6 b8bd
00000280: c418 593f 13a1 253f bbfe ce3e ee2e 7bbf
00000290: 2283 003f 82e5 42bf c918 e5bf 666f a3bf
000002a0: b95e 9a3c 9800 2abe cd0e 56bf 8b8f cbbe
000002b0: 6371 b1bf a594 78bf 0744 423f 353c 0f3f
000002c0: 7e5c b53f c8bb 1abe a231 a13e 7b5b 4dbf
000002d0: 0f32 f0bf 973f fcbe e9ad 053e 20c7 fb3e
000002e0: 1e70 92be 8422 343f 5dab 6fbf 9c29 61bd
000002f0: 20c5 773f c493 c6bf 4c30 543f e551 86bf
00000300: f9bf 123f 8fe2 fdbf b11b 4a3f 524c ec3f
00000310: 641f 21bf 7cbb 82bf d45e 523e 73ae 4b3e
00000320: 1741 02bf 17d5 bd3f 5abd c83e 736c 32c0
00000330: 0567 b6bd 97cc 6bbe bd74 833d f5b0 00bf
00000340: 85ba 11bf efce 1e3f 2114 be3e 29ba 72bf
00000350: d213 6b3e 53c7 113f 2211 923e 4df7 14bd
00000360: 755c f63e 6439 943f 8377 73bf dd8d e43f
00000370: adce a9bd 8feb 983f f884 f43d df67 a3bf
00000380: b464 0c3e 81c4 223e ae68 e23c 070d 51bf
00000390: ad2c 083f 91bf 8f3f 94a6 723f eaae ca3e
000003a0: 7ff9 233f ee11 723f 0bcf dc3f 7d6c 93bf
000003b0: e745 dbbe 0cee f1be 3229 603d 6eb5 d7bd
000003c0: 1e32 ec3e a3ee 193f 2521 233e 0238 c13e
000003d0: ba3d 263f aea4 babf d765 01c0 886a 3dbf
000003e0: ecae b5bf 624a 2ebc 7485 e3be da26 0cbf
000003f0: b535 673e 8bf8 b1bd 0c09 403e cbc1 113f

bias f4 [64]
-0.23378661 0.47029698 0.76932627 -0.32436675 -1.2204477 -0.10284583 -1.415433 -0.035504818
-0.11557862 -0.20581478 -0.16480605 0.5796595 0.5367563 0.52607816 0.49906573 0.28409627
1.1105127 -1.6701866 -0.57032573 -0.49479792 -1.4334121 -0.61880857 0.11536844 -0.6608906
1.4227234 0.0605251 0.3365987 1.3962152 -0.27429876 0.26719356 0.3115513 0.5207798
-0.6363503 0.31873074 1.0548168 0.36449146 0.13264692 0.9800344 -0.17671086 0.06865502
0.0625344 1.5242583 -0.51204973 -0.41676238 -0.51076895 -1.0089964 0.35304075 0.08977884
0.54738545 -0.17628336 1.1021956 -0.24769863 0.4918812 -0.06561528 1.0793525 0.37366635
0.53931564 -0.5627701 0.6422878 0.74076265 0.5914184 0.98409575 0.222277 1.1982172
00000000: c265 6fbe c4ca f03e 91f2 443f 6613 a6be
00000010: a137 9cbf d6a0 d2bd e92c b5bf 806d 11bd
00000020: 7cb4 ecbd 1cc1 52be ebc2 28be 9164 143f
00000030: dc68 093f 0fad 063f 8b85 ff3e 1175 913e
00000040: 4825 8e3f adc8 d5bf de00 12bf 2756 fdbe
00000050: 0c7a b7bf 3d6a 1ebf 4a46 ec3d 2030 29bf
00000060: cd1b b63f 2be9 773d aa56 ac3e 2eb7 b23f
00000070: e370 8cbe 98cd 883e a783 9f3e d351 053f
00000080: dae7 22bf ad30 a33e 3d04 873f a09e ba3e
00000090: 98d4 073e 89e3 7a3f b1f3 34be 019b 8c3d
000000a0: 0912 803d e51a c33f b115 03bf e161 d5be
000000b0: c1c1 02bf cb26 81bf c2c1 b43e f8dd b73d
000000c0: 7421 0c3f a083 34be bf14 8d3f b6a4 7dbe
000000d0: dad7 fb3e 4e61 86bd 3928 8a3f 3251 bf3e
000000e0: 9710 0a3f b411 10bf f96c 243f 9fa2 3d3f
000000f0: 3267 173f b3ed 7b3f 959c 633e 2e5f 993f

weight f4 [64, 64]
1.5669793 -0.61568904 0.22989742 2.1334627 0.8287819 -0.59978503 -1.0747967 0.45313242
0.98473036 0.9617104 -0.47539228 -0.87698764 0.35339415 0.4059798 1.1760614 0.90850776
-1.4022698 -3.1480396 0.1980441 -0.2474382 -0.77667665 1.8556559 1.3377599 0.9400583
-5.1934185 0.22916748 -0.21274598 -0.6146876 0.24227771 0.66217 -0.4761796 -0.5105668
-0.030542934 -2.5886664 0.21691681 -0.9412402 -0.40452567 1.2440847 -0.022404825 1.003358
0.6554384 -0.9240917 0.29237747 1.1167091 1.4292402 0.3771253 -2.6919017 1.4704936
-0.5156607 0.195639 -0.9095871 0.34632823 -0.18910947 0.5690946 0.17155673 -0.67281204
-0.62437975 -0.4383393 0.13249566 -0.6527929 1.4726554 -2.696352 0.8832637 0.15811354
-0.21432966 -0.44802478 0.57544273 0.67362374 1.1287229 -3.626109 -1.1259216 0.21195963
0.9177279 0.8008308 1.6739262 -1.9761201 -0.2187254 0.092241645 0.75109303 1.1467941
-1.9498528 -1.7627211 -1.3632641 2.787882 0.065007925 1.2128185 0.86481315 1.3887378
-5.017152 0.011229223 0.28322142 0.2535557 0.43074104 1.318182 -0.24717641 -0.2706689
1.37648 -1.5654463 0.25974715 0.88929874 0.4152201 0.44921884 0.4258382 -0.15606643
1.4141024 -0.92978674 0.3644698 -0.25862977 1.2515897 0.2763494 0.23443429 0.32875243
0.4464517 0.43102357 -1.1888233 0.7600713 -0.260611 1.4763387 -0.7745358 -0.20049348
-2.906955 0.059115134 0.27039823 -0.36610407 0.36140287 -2.1126785 1.1387033 0.08026066
-1.1523074 -0.514246 0.4658764 2.6037326 0.04071314 -1.3092326 -0.87208134 0.3922679
1.0045121 0.20418404 0.9949437 -3.54408 0.5758791 0.32109725 0.3527578 1.0412307
-0.8722227 -2.2357132 -0.5949565 0.3626967 -0.73953384 -0.23957601 0.7848967 1.2936313
-1.3318877 0.11772393 -0.13227457 -0.80988723 0.34569493 0.2972869 -0.05421594 -0.6178877
-0.025375573 -0.40494832 -0.04061341 0.25133866 0.004572021 0.54068077 0.66017294 -0.53214
0.20836377 -0.49763605 -0.0015571568 1.0982826 1.2611866 0.51262003 0.12657607 0.31171563
-0.10134451 0.620996 -0.8240652 0.6657316 0.15074025 1.7611 -0.5592076 0.05535811
-0.21890846 1.7838924 0.012721776 0.03741882 1.02507 -0.8794676 1.0302284 -0.33896112
-0.23329128 -0.9892078 0.43403175 1.2069526 0.8367075 0.25626275 -0.86068 0.35943538
-0.01547147 0.15356258 1.5762887 -2.8273308 0.9330524 0.8944845 1.27294 0.3803894
-1.1914533 0.93614054 -0.42730513 1.7544278 0.3483808 0.7824698 1.2848632 0.24565457
-2.2590995 -0.29049242 0.1727987 -1.3103147 0.7744367 0.98947877 -0.13837908 -0.5009073
-1.7054288 -0.26707685 -0.5571502 -0.3600244 -0.3371648 0.9179239 0.5927111 0.47190902
0.7484817 -0.6343876 -0.14899 1.1954358 0.7572854 0.03918094 -1.1756698 0.0845401
-0.2257995 0.47828498 -0.5142744 0.6097704 0.7971695 -0.16918015 -0.21635789 -0.34338817
1.4732605 0.45667887 0.29283297 -0.8330395 0.7475723 -0.7847938 1.7039539 -0.43597773
00000000: c792 c83f cc9d 1dbf 3b6a 6b3e a78a 0840
00000010: 0d2b 543f 838b 19bf f092 89bf f900 e83e
00000020: 4a17 7c3f a732 763f 9e66 f3be 4382 60bf
00000030: 14f0 b43e 96dc cf3e 2e89 963f f793 683f
00000040: 947d b3bf 7b79 49c0 13cc 4a3e 7160 7dbe
00000050: 48d4 46bf 2286 ed3f b73b ab3f a9a7 703f
00000060: 7c30 a6c0 e1aa 6a3e 15da 59be 2b5c 1dbf
00000070: a617 783e f983 293f d0cd f3be 81b4 02bf
00000080: 2d35 fabc b6ac 25c0 711f 5e3e 1ef5 70bf
00000090: fd1d cfbe 2b3e 9f3f 538a b7bc 096e 803f
000000a0: d0ca 273f 4691 6cbf 80b2 953e 53f0 8e3f
000000b0: 58f1 b63f 9116 c13e 1e48 2cc0 2239 bc3f
000000c0: 5702 04bf 9755 483e b3da 68bf ef51 b13e
000000d0: eaa5 41be 2fb0 113f 91ac 2f3e 693d 2cbf
000000e0: 5ad7 1fbf 026e e0be f1ac 073e 6f1d 27bf
000000f0: f97f bc3f 0891 2cc0 921d 623f 84e8 213e
00000100: 3c79 5bbe 8163 e5be 3750 133f 9b72 2c3f
00000110: fe79 903f 2b12 68c0 331e 90bf f20b 593e
00000120: 37f0 6a3f 3f03 4d3f 3743 d63f 81f1 fcbf
00000130: 8df9 5fbe 30e9 bc3d a247 403f 26ca 923f
00000140: c794 f9bf d8a0 e1bf 707f aebf a96c 3240
00000150: e022 853d a33d 9b3f 6564 5d3f 29c2 b13f
00000160: 828c a0c0 c6fa 373c 6602 913e 0dd2 813e
00000170: 178a dc3e 30ba a83f d01b 7dbe 1d95 8abe
00000180: 7f30 b03f 8b60 c8bf 94fd 843e 15a9 633f
00000190: bb97 d43e 0300 e63e 7707 da3e e1cf 1fbe
000001a0: 4f01 b53f 8106 6ebf c99b ba3e 1f6b 84be
000001b0: 1734 a03f ab7d 8d3e 8b0f 703e 3d52 a83e
000001c0: 5195 e43e 1faf dc3e 5d2b 98bf 0894 423f
000001d0: ce6e 85be abf8 bc3f fa47 46bf 2a4e 4dbe
000001e0: 8d0b 3ac0 b622 723d a371 8a3e fe71 bbbe
000001f0: cc09 b93e 2036 07c0 08c1 913f b35f a43d
00000200: cf7e 93bf a0a5 03bf 5a87 ee3e 8ea3 2640
00000210: d2c2 263d ef94 a7bf b940 5fbf 57d7 c83e
00000220: da93 803f 9f15 513e a1b4 7e3f 35d2 62c0
00000230: d06c 133f dc66 a43e ac9c b43e 0c47 853f
00000240: fd49 5fbf ed15 0fc0 124f 18bf 62b3 b93e
00000250: 1752 3dbf 6a53 75be fdee 483f b695 a53f
00000260: 4c7b aabf 3e19 f13d fc72 07be c554 4fbf
00000270: edfe b03e fd35 983e 8911 5ebd e32d 1ebf
00000280: 6fe0 cfbc 6355 cfbe 3f5a 26bd 76af 803e
00000290: e4d0 953b 0e6a 0a3f 1801 293f 543a 08bf
000002a0: 505d 553e 27ca febe 8319 ccba 8694 8c3f
000002b0: 906e a13f 113b 033f 289d 013e 3199 9f3e
000002c0: b68d cfbd 98f9 1e3f f0f5 52bf 636d 2a3f
000002d0: a75b 1a3e ba6b e13f 3b28 0fbf 30bf 623d
000002e0: 8a29 60be 9656 e43f ff6e 503c 7a44 193d
000002f0: 7e35 833f ca24 61bf 86de 833f 508c adbe
00000300: e9e3 6ebe b93c 7dbf 6939 de3e 6c7d 9a3f
00000310: 7632 563f df34 833e 8655 5cbf ea07 b83e
00000320: 0c7c 7dbc 823f 1d3e d4c3 c93f fdf2 34c0
00000330: 86dc 6e3f f0fc 643f b3ef a23f 66c2 c23e
00000340: 8b81 98bf e8a6 6f3f bdc7 dabe 1791 e03f
00000350: f85e b23e f14f 483f 6676 a43f df8c 7b3e
00000360: 1695 10c0 6cbb 94be 24f2 303e 64b8 a7bf
00000370: 7c41 463f 7b4e 7d3f 3fb3 0dbe 763b 00bf
00000380: 7e4b dabf 4cbe 88be 65a1 0ebf 1e55 b8be
00000390: dda0 acbe 10fd 6a3f eabb 173f 0f9e f13e
000003a0: 7f9c 3f3f 3a67 22bf d690 18be 0a04 993f
000003b0: 75dd 413f 317c 203d 597c 96bf 5c23 ad3d
000003c0: fc37 67be c5e1 f43e 7da7 03bf ea19 1c3f
000003d0: 4d13 4c3f 903d 2dbe ec8c 5dbe 93d0 afbe
000003e0: cd93 bc3f d0d1 e93e 34ee 953e 1442 55bf
000003f0: e660 3f3f 3fe8 48bf 291b da3f 7938 dfbe

bias f4 [64]
-0.115236886 0.13923189 -0.24828517 -0.61476403 0.052572187 -0.018535407 -0.10980695 -0.35266095
-0.9639686 0.08769998 -0.1884 -0.096878044 -0.8192122 -0.12152034 -0.07680172 0.062372383
-0.123038255 0.012105802 0.0050000777 0.062658526 1.0446247 0.31854266 -0.17508262 0.673576
-0.51334065 -0.1265661 -0.012067353 0.28421944 0.009031251 0.46423078 -0.2297983 -0.2231014
-0.029329851 -0.42760962 0.17017601 -0.049763016 -0.65567183 -0.08407959 -0.33480248 -0.12741034
-0.96616155 -0.45809257 0.074450575 -0.025968267 0.09336012 -0.035080496 -0.5966214 0.18935274
-0.16453603 0.39566782 0.3966819 0.005164598 0.8925189 0.1613675 -0.27805585 0.44487414
0.03633689 -0.031067595 0.36688522 0.22529803 0.027142197 0.4685382 -0.09533596 0.11782799
00000000: 5101 ecbd ce92 0e3e 783e 7ebe 2d61 1dbf
00000010: ef55 573d 91d7 97bc 77e2 e0bd fa8f b4be
00000020: a5c6 76bf 0c9c b33d eeeb 40be ff67 c6bd
00000030: e4b7 51bf a8df f8bd 384a 9dbd 2f7a 7f3d
00000040: 7bfb fbbd 6a57 463c b1d7 a33b 1d53 803d
00000050: 43b6 853f 0618 a33e dc48 33be 7a6f 2c3f
00000060: 4b6a 03bf 8b9a 01be 26b6 45bc 3685 913e
00000070: d0f7 133c a8af ed3e 3f50 6bbe b274 64be
00000080: 2845 f0bc a6ef dabe 9f42 2e3e 4ed4 4bbd
00000090: 1cda 27bf ec31 acbd 3b6b abbe db77 02be
000000a0: 5d56 77bf 1c8b eabe 8b79 983d 67bb d4bc
000000b0: 9733 bf3d 91b0 0fbd 2ebc 18bf afe5 413e
000000c0: 227c 28be f994 ca3e e419 cb3e ca3b a93b
000000d0: 1e7c 643f 863d 253e 565d 8ebe 8bc6 e33e
000000e0: fed5 143d 7881 febc 61d8 bb3e 87b4 663e
000000f0: 5059 de3c 3de4 ef3e 803f c3bd cd4f f13d

weight f4 [4, 64]
-2.270813 -0.59263957 -1.3635579 -1.3660047 -0.080201626 -1.0522009 0.014261008 -1.1935002
-2.1984637 -0.014290005 -1.6440634 -0.112527415 -1.9746642 -1.6815778 0.071729355 0.043755367
0.012519065 -0.890948 -1.4362483 -2.0088835 -2.027588 0.3108833 -0.9898982 1.4659442
-1.6590327 0.7474696 0.072454095 -2.8328967 0.08132662 -1.7195653 -1.8169779 -1.7157571
2.2172568 0.90822816 1.9660373 -1.0516438 -1.62048 1.9296565 -1.4302464 -0.12321848
2.3523295 -1.8588209 -1.6694663 -0.8116318 -0.8764194 -2.0755847 -2.783183 0.5697799
1.8367023 1.0921766 3.1464715 0.2934516 2.160315 -0.95507467 -2.8602803 1.5710058
0.08199632 1.552689 0.993834 -0.34727135 0.03094931 1.0049531 0.7215472 -0.5016771
-1.612314 -1.2038696 -1.5613607 -0.960659 -0.032790475 -0.67025095 0.05806758 -2.290583
-1.2835904 -0.051110506 -1.6306354 0.023069233 -1.9714135 -2.3133636 -0.041097067 0.06499794
0.10424243 -0.994291 -1.3964653 -2.5304217 -2.2752216 0.24910577 -0.84839475 1.4149481
-1.4815106 0.78971964 -0.055093743 -3.2940195 0.008514721 -1.9849118 -2.915675 -1.9953808
2.2248135 0.75072706 1.9016726 -1.4188793 -1.3885926 1.8338455 -0.4882549 0.083764136
2.5084283 -1.5355831 -1.8187468 -0.07842088 -1.1160346 -2.9429514 -2.1536462 -0.5981814
1.95979 1.1484575 2.6443305 -0.5087642 1.9058121 -0.58200586 -2.9306576 1.4770771
-0.109716244 1.2245296 1.2398366 -0.7801355 -0.0005799383 1.4848479 0.8964306 -1.1227635
-1.1423695 -1.6922579 -1.1635042 -0.8999221 0.036802232 -1.780131 -0.09182525 -2.5433877
-1.9076003 0.08318992 -2.2600648 -0.0019757838 -2.140732 -1.0729927 -0.06374316 0.044953782
-0.036129743 -1.6752124 -1.4374164 -1.5379698 -2.2205427 1.2679181 -1.0927941 1.78628
-1.3056872 0.45203727 -0.039387982 0.08993151 0.07890566 -1.6600887 -2.1990604 -1.073063
1.8886919 1.16586 2.113559 -1.9309429 -0.8650286 1.9485469 0.9245835 0.033927053
2.6527715 -1.5416247 -1.5344268 -1.0947449 -0.801182 -2.5493138 -2.704205 1.2507503
1.7904096 0.5396914 3.4068518 0.36511546 1.6268476 0.05305033 -2.0308897 1.5502825
-0.03191817 1.1154515 1.0449023 -0.658691 -0.075956 1.499014 0.68344027 2.7477748
-2.313113 -0.9485548 -1.6466486 -1.6359255 0.0062062293 -2.2906253 0.082904585 -0.99333483
-1.5599927 0.09650555 -2.3197591 0.06358759 -2.3499994 -2.0601304 0.019871041 0.039319333
-0.06583804 -1.5516237 -1.5150138 -1.4408059 -1.7861775 1.2181681 -0.77183247 0.9884385
-1.2419719 0.46515453 0.022455795 -0.2426801 0.08780364 -1.6031259 -1.9182259 -1.5188607
2.0964136 1.0005615 2.0150278 -1.5504347 -1.0797775 2.0963938 -1.4976482 -0.016462058
2.424075 -1.9059993 -1.3232435 -1.1267163 -0.79269546 -1.8189911 -2.3880086 0.97688234
1.9652638 0.72656476 3.892967 0.7345613 2.046847 -1.0310847 -1.7728103 1.5082518
-0.018764764 1.5646609 1.4303242 -0.30239728 0.00195238 1.255633 0.39458334 -0.39082184
00000000: 0055 11c0 3ab7 17bf 1189 aebf 3ed9 aebf
00000010: c040 a4bd 85ae 86bf 01a7 693c 9dc4 98bf
00000020: a1b3 0cc0 a020 6abc ab70 d2bf c674 e6bd
00000030: ccc1 fcbf f13d d7bf d7e6 923d d438 333d
00000040: c41c 4d3c 2b15 64bf fcd6 b7bf 8c91 00c0
00000050: 00c4 01c0 192c 9f3e f869 7dbf 0fa4 bb3f
00000060: 2f5b d4bf 2b5a 3f3f d062 943d 2e4e 35c0
00000070: 928e a63d b71a dcbf bb92 e8bf ee9d dbbf
00000080: 89e7 0d40 a481 683f 1ca7 fb3f 449c 86bf
00000090: e36b cfbf fcfe f63f 5012 b7bf f859 fcbd
000000a0: 918c 1640 d8ed edbf 12b1 d5bf 1ac7 4fbf
000000b0: 065d 60bf 61d6 04c0 ac1f 32c0 18dd 113f
000000c0: 1019 eb3f 71cc 8b3f ca5f 4940 4a3f 963e
000000d0: 9a42 0a40 c67f 74bf d50e 37c0 b816 c93f
000000e0: b0ed a73d 83be c63f e86b 7e3f 8dcd b1be
000000f0: 6889 fd3c 4ea2 803f 51b7 383f e96d 00bf
00000100: 4e60 cebf 6618 9abf abda c7bf c0ed 75bf
00000110: 4e4f 06bd 9195 2bbf 45d8 6d3d e998 12c0
00000120: b14c a4bf 4059 51bd a9b8 d0bf b0fb bc3c
00000130: 4757 fcbf 260e 14c0 6655 28bd a41d 853d
00000140: 0e7d d53d db89 7ebf 60bf b2bf 6ef2 21c0
00000150: 3b9d 11c0 9515 7f3e 6630 59bf 051d b53f
00000160: 24a2 bdbf 112b 4a3f faa9 61bd 37d1 52c0
00000170: 5481 0b3c 9711 febf 6b9a 3ac0 a368 ffbf
00000180: 5863 0e40 a62f 403f 026a f33f d69d b5bf
00000190: 67bd b1bf 73bb ea3f 8cfc f9be 888c ab3d
000001a0: 178a 2040 fd8d c4bf b2cc e8bf 209b a0bd
000001b0: 39da 8ebf 5159 3cc0 57d5 09c0 6b22 19bf
000001c0: 66da fa3f a800 933f b63c 2940 5f3e 02bf
000001d0: a7f1 f33f 56fe 14bf e58f 3bc0 dd10 bd3f
000001e0: e9b2 e0bd 63bd 9c3f f7b2 9e3f f6b6 47bf
000001f0: 0007 18ba 7f0f be3f 7a7c 653f b7b6 8fbf
00000200: 2a39 92bf e89b d8bf b5ed 94bf 4b61 66bf
00000210: f0bd 163d 55db e3bf e00e bcbd ddc6 22c0
00000220: 3f2c f4bf 7a5f aa3d e7a4 10c0 277c 01bb
00000230: c101 09c0 d357 89bf c68b 82bd 7521 383d
00000240: c8fc 13bd 5c6d d6bf 43fd b7bf 32dc c4bf
00000250: 5f1d 0ec0 244b a23f ade0 8bbf d3a4 e43f
00000260: c220 a7bf 6e71 e73e 4b55 21bd 032e b83d
00000270: 4a99 a13d c97d d4bf 68bd 0cc0 215a 89bf
00000280: a8c0 f13f e73a 953f 8d44 0740 2329 f7bf
00000290: 8472 5dbf fc69 f93f 81b1 6c3f 18f7 0a3d
000002a0: 02c7 2940 f553 c5bf 1968 c4bf 9a20 8cbf
000002b0: 431a 4dbf f527 23c0 b211 2dc0 9618 a03f
000002c0: 242c e53f 3729 0a3f dc09 5a40 6af0 ba3e
000002d0: 8b3c d03f 4e4b 593d 19fa 01c0 a86f c63f
000002e0: a1bc 02bd 1dc7 8e3f 5cbf 853f f99f 28bf
000002f0: d28e 9bbd b1df bf3f f1f5 2e3f 8bdb 2f40
00000300: 0b0a 14c0 7dd4 72bf 62c5 d2bf 0266 d1bf
00000310: a05d cb3b 9b99 12c0 e1c9 a93d 314b 7ebf
00000320: d7ad c7bf b4a4 c53d ef76 14c0 363a 823d
00000330: 6466 16c0 2dd9 03c0 98c8 a23c 4f0d 213d
00000340: 18d6 86bd 9b9b c6bf f9eb c1bf 546c b8bf
00000350: 77a1 e4bf efec 9b3f d096 45bf 4e0a 7d3f
00000360: eff8 9ebf bc28 ee3e 37f5 b73c 2281 78be
00000370: 65d2 b33d 3b33 cdbf 6d88 f5bf 076a c2bf
00000380: a42b 0640 6612 803f 37f6 0040 a574 c6bf
00000390: 2636 8abf 512b 0640 f0b2 bfbf 70db 86bc
000003a0: 0b24 1b40 c9f7 f3bf 0b60 a9bf 3d38 90bf
000003b0: 17ee 4abf b3d4 e8bf 22d5 18c0 f614 7a3f
000003c0: c48d fb3f 2600 3a3f 5f26 7940 360c 3c3f
000003d0: 8bff 0240 95fa 83bf 73eb e2bf 650e c13f
000003e0: 90b8 99bc cf46 c83f dd14 b73f d1d3 9abe
000003f0: 00e7 ff3a 95b8 a03f d406 ca3e cd19 c8be

bias f4 [4]
-0.024740629 0.06668601 0.108499795 0.38234138
00000000: dcac cabc ad92 883d 2435 de3d 40c2 c33e

exp_avg f4 [64, 8]
-0.010518771 -0.14677061 0.513229 0.028440947 0.355079 0.2005801 0.6075421 1.296926
-0.0008476692 0.46129653 0.7359604 0.0993964 0.21981941 0.6882306 0.0732482 0.11547304
-0.29701293 -0.4323541 -0.40627086 0.072562 -0.113809206 -0.35450646 -0.24618973 -0.21273783
-0.09722322 0.29855862 0.21879074 -0.2933841 -0.14164864 -0.20522103 -0.0009938792 -0.23187861
-0.019155996 -0.3198078 -0.16885467 0.25964913 -0.18039545 -0.19378842 -0.020730056 -0.013524856
0.33705014 0.43835902 0.2627879 -0.028533204 0.3024285 0.30648062 -0.012111051 -0.08069775
0.0761409 0.012070287 -0.2519069 -0.06386417 0.21883962 -0.13589662 -0.12935415 0.3346686
0.31235835 0.42538083 0.34286335 0.06637748 0.12670113 0.156683 0.49955752 0.71087754
0.25421992 -0.5879924 -0.9001707 0.117313504 -0.4160037 -0.81781787 -0.65806544 -1.150735
-0.10747463 -0.054482434 -0.09809068 -0.06175196 -0.25130695 -0.18510884 0.14429012 -0.09467772
0.64389735 0.39694086 -0.7810046 -0.17484216 -0.17583795 -0.6162908 -1.1491603 -0.18380186
0.07745279 -0.05512496 -0.23395851 0.11232081 0.30683967 1.3653564 -0.07328402 0.09881493
0.29989943 0.034314696 0.0143043585 -0.24638668 -0.300472 -0.8349237 0.3324092 0.048489302
-0.13688622 -0.54486156 -0.3342389 0.053070076 -0.28888458 -0.40290806 0.047991738 -0.23397546
0.20708922 0.09498366 0.111738466 -0.33139443 -0.17802873 -0.97895455 0.16323887 -0.056137074
0.04860429 -0.9485711 -0.7059069 0.1117009 -0.24753696 -0.9295423 -0.92397696 -0.63824624
0.27501708 0.9567522 0.9998979 -0.28378695 0.49746537 1.6382445 0.79389685 0.562634
-0.0009378475 -0.015224841 -0.025165405 -0.016787788 -0.03121061 -0.17598076 -2.9176775e-07 0.011122053
-0.13919641 0.77939004 0.9206531 -0.46107987 0.39068893 1.4792747 1.932358 2.2775428
0.058738112 -0.05777648 -0.019139798 -0.20861134 -0.116840914 -0.39212152 0.35110608 -0.042551607
0.11063506 0.747655 0.14128959 -0.5511441 0.50544906 0.31671345 6e-45 6e-45
-0.307824 -0.08218935 0.43952927 -0.2500102 0.21523866 1.0803918 2.9288878 2.1944697
0.135866 -0.23141167 -0.97054595 -0.31590185 -0.061985686 -0.62177867 -0.6782859 -0.8302024
-0.11100979 0.0246885 0.20638216 -0.023495305 -0.0692388 0.03884903 -0.78238666 -0.016103555
-0.8138819 -0.3093545 0.6425023 0.40420052 0.39663708 0.73533964 1.5882161 1.7927155
-0.10297379 0.34681237 0.7032592 -0.027942427 0.027807599 1.0158032 0.90094435 0.64861923
-0.05723708 -0.34980357 -0.15814337 0.02405151 0.12004364 -0.005140236 -0.6474798 -0.32768363
0.4993672 0.57291424 0.4162671 0.13777326 0.052059066 -0.055058833 -0.26208034 -0.08860422
0.06402187 -0.5868217 -0.58262545 0.054915804 -0.33187637 -0.7033559 -0.35018593 -0.43958896
-0.18041949 -0.9203048 -0.5301682 0.35534793 -0.6118361 -0.7421393 -0.8273532 -0.7649894
0.008082373 0.64818096 0.09237859 -0.26688075 0.48724833 0.55571604 -6.04338e-07 0.05513486
-0.010811547 0.7181291 0.49034765 -0.24232055 0.49399525 1.2664462 0.8083993 0.77142215
00000000: ec56 2cbc 094b 16be fa62 033f fdfc e83c
00000010: eacc b53e df64 4d3e e187 1b3f ac01 a63f
00000020: 1e36 5eba 0f2f ec3e e767 3c3f 5790 cb3d
00000030: 5718 613e e12f 303f 2703 963d 217d ec3d
00000040: 1412 98be 845d ddbe bc02 d0be 639b 943d
00000050: cd14 e9bd df81 b5be 2919 7cbe f2d7 59be
00000060: f81c c7bd addc 983e ae0a 603e 7136 96be
00000070: 570c 11be 7625 52be 0d45 82ba 9671 6dbe
00000080: 09ed 9cbc d9bd a3be 3de8 2cbe bbf0 843e
00000090: 96b9 38be 7970 46be 14d2 a9bc 5c97 5dbc
000000a0: d691 ac3e 9870 e03e 238c 863e 77be e9bc
000000b0: e9d7 9a3e 07eb 9c3e 6e6d 46bc dd44 a5bd
000000c0: c3ef 9b3d 74c2 453c f1f9 80be 38cb 82bd
000000d0: 7e17 603e 7c28 0bbe 6a75 04be af59 ab3e
000000e0: 6fed 9f3e 84cb d93e c98b af3e ebf0 873d
000000f0: f1bd 013e 8271 203e 01c6 ff3e 12fc 353f
00000100: 1d29 823e ac86 16bf 9671 66bf 1042 f03d
00000110: 70fe d4be 835c 51bf fa76 28bf 494b 93bf
00000120: a91b dcbd f928 5fbd c4e3 c8bd a0ef 7cbd
00000130: 4eab 80be 2c8d 3dbe cac0 133e 64e6 c1bd
00000140: 75d6 243f d53b cb3e ebef 47bf d309 33be
00000150: dd0e 34be 3cc5 1dbf af17 93bf 8e36 3cbe
00000160: 929f 9e3d b6ca 61bd d292 6fbe 7408 e63d
00000170: 171a 9d3e 00c4 ae3f ef15 96bd 7b5f ca3d
00000180: 6b8c 993e 918d 0c3d d45c 6a3c ca4c 7cbe
00000190: 77d7 99be 8fbd 55bf 8a31 aa3e b89c 463d
000001a0: e72b 0cbe 0c7c 0bbf 5c21 abbe 0260 593d
000001b0: aee8 93be f749 cebe fc92 443d 4397 6fbe
000001c0: 320f 543e cb86 c23d 23d7 e43d 88ac a9be
000001d0: 2a4d 36be c49c 7abf 1728 273e fdef 65bd
000001e0: 4b15 473d 8ed5 72bf 51b6 34bf 71c3 e43d
000001f0: 547a 7dbe 7cf6 6dbf c189 6cbf 1b64 23bf
00000200: 0acf 8c3e b6ed 743f 4ff9 7f3f 864c 91be
00000210: c8b3 fe3e ffb1 d13f d33c 4b3f c808 103f
00000220: e1d9 75ba 9d71 79bc ae27 cebc 8b86 89bc
00000230: 65ad ffbc 4d34 34be 41a4 9cb4 4539 363c
00000240: 8189 0ebe 1b86 473f ecaf 6b3f a912 ecbe
00000250: 6108 c83e e058 bd3f 8257 f73f 43c3 1140
00000260: 6097 703d 08a7 6cbd 11cb 9cbc 369e 55be
00000270: 4a4a efbd 27c4 c8be 2dc4 b33e 984a 2ebd
00000280: a294 e23d 5166 3f3f 38ae 103e c817 0dbf
00000290: 1c65 013f 4428 a23e 0400 0000 0400 0000
000002a0: 1b9b 9dbe e452 a8bd fb09 e13e 5601 80be
000002b0: 8667 5c3e 474a 8a3f e672 3b40 3172 0c40
000002c0: 7520 0b3e 2ef7 6cbe b375 78bf e3bd a1be
000002d0: b4e4 7dbd e32c 1fbf 25a4 2dbf 2588 54bf
000002e0: 1a59 e3bd 8a3f ca3c d855 533e 3a79 c0bc
000002f0: 12cd 8dbd 2920 1f3d 7e4a 48bf 9aeb 83bc
00000300: 905a 50bf b763 9ebe 087b 243f 5ff3 ce3e
00000310: 0414 cb3e 383f 3c3f aa4a cb3f b477 e53f
00000320: ece3 d2bd 6491 b13e cc08 343f 84e7 e4bc
00000330: c3cc e33c d705 823f 4aa4 663f e90b 263f
00000340: 6e71 6abd 7419 b3be 56f0 21be ac07 c53c
00000350: 71d9 f53d 6d6f a8bb 3cc1 25bf 26c6 a7be
00000360: 0fad ff3e 82aa 123f f620 d53e 6f14 0d3e
00000370: e33b 553d 5f85 61bd 652f 86be 2176 b5bd
00000380: e61d 833d f239 16bf f126 15bf 65ef 603d
00000390: b3eb a9be 220f 34bf 924b b3be ce11 e1be
000003a0: e3bf 38be 1899 6bbf 1ab9 07bf 2af0 b53e
000003b0: 4aa1 1cbf d7fc 3dbf 6bcd 53bf 58d6 43bf
000003c0: ee6b 043c 30ef 253f fc30 bd3d 98a4 88be
000003d0: 9d78 f93e 6843 0e3f cb39 22b5 17d5 613d
000003e0: ea22 31bc 4fd7 373f d90e fb3e e122 78be
000003f0: f2ec fc3e e91a a23f 42f3 4e3f ec7b 453f

exp_avg_sq f4 [64, 8]
7.9793243 0.5840552 11.283022 2.581248 6.6897335 13.554399 98.74886 123.76698
2.8195596 3.1062272 5.5271506 6.048988 5.004843 12.7840185 24.473976 28.98646
2.7385383 2.8095515 12.32204 4.6393776 23.42443 25.387125 12.93475 16.91717
12.506563 13.311569 8.567186 8.110462 6.7822804 5.48742 0.40270767 4.5914073
0.1696586 0.43821317 4.264914 1.2461282 13.507108 9.879576 2.5751348 3.0590165
3.6461194 4.7898846 66.48686 23.452337 184.46896 127.65279 0.01994593 7.4380474
3.373026 0.15924631 81.48324 21.434729 199.19124 206.65877 40.97012 30.259111
2.336972 5.5686336 1.8432256 2.2570388 1.0929987 3.7490141 27.26775 28.058727
11.712084 11.954395 14.588654 15.089168 15.103313 39.049717 92.48436 98.880104
2.4886057 2.1780674 10.244166 4.8940506 35.131165 21.573856 3.2107127 5.909829
20.960344 1.527988 66.0184 10.472345 63.778435 100.542854 216.26556 209.98558
7.6196547 1.1827968 7.821857 30.28646 5.832137 35.18502 45.385616 56.859497
2.056175 0.19953164 8.278485 3.6123178 7.9752107 13.332196 12.221496 16.110714
4.6429415 3.845354 13.53927 5.732588 21.01906 22.603424 11.948622 18.47198
6.99535 5.403137 15.173894 4.9309454 12.702436 18.823288 3.275767 7.0039153
16.721172 19.77708 17.23909 9.672097 6.7886763 43.581345 112.16269 104.36587
7.7446995 7.1297965 13.105738 8.215941 3.9009857 47.56815 49.49486 51.9094
0.039033767 0.048133675 0.055695195 0.013014037 0.035095386 0.13573729 0.007409713 0.06309175
8.911255 13.683454 11.831818 13.403459 5.1757503 51.848396 81.37396 72.59879
2.5010717 3.1018193 8.37555 0.6270271 1.2573642 4.60334 4.2327614 6.7851725
1.1527289 5.645218 3.73323 3.5922627 2.8145247 0.6542026 4.6532943e-08 2.4033618e-08
4.433138 2.0083973 7.725551 3.56577 2.245972 8.0935135 88.74104 87.73845
11.295697 11.528995 22.000547 25.171522 5.8979588 95.18516 157.60342 137.35136
5.1571007 3.668223 8.052628 4.304513 4.6198187 2.673735 10.187549 4.1195216
27.457964 6.515041 70.59556 27.293701 12.758857 184.67975 344.9976 303.11392
2.5137444 4.5748844 10.0472975 4.572239 15.298535 17.787067 14.735673 12.498021
0.8476462 2.465167 1.4970528 0.6196928 0.6359644 1.116251 3.7203617 4.4718943
44.287514 49.265068 36.83237 25.230358 29.775286 26.789946 59.072502 85.96049
2.7822628 2.9300292 17.436724 7.399986 31.66938 32.599716 30.773958 36.965218
4.4437175 4.666694 4.917501 12.784727 5.0793066 35.31045 36.110966 26.7468
0.46433833 1.1460321 0.8118177 1.545294 2.3074384 1.0590837 0.030576335 0.26537663
5.571332 5.8532963 25.35013 12.395716 61.091045 69.07677 51.484028 50.180492
00000000: a056 ff40 a484 153f 4287 3441 2b33 2540
00000010: 4c12 d640 d1de 5841 6b7f c542 b288 f742
00000020: aa73 3440 6dcc 4640 6bde b040 4f91 c140
00000030: ad27 a040 578b 4c41 b4ca c341 45e4 e741
00000040: 3644 2f40 b1cf 3340 1327 4541 c875 9440
00000050: 3c65 bb41 d518 cb41 bcf4 4e41 5d56 8741
00000060: e21a 4841 30fc 5441 3213 0941 74c4 0141
00000070: 7108 d940 f298 af40 b32f ce3e cfec 9240
00000080: fcba 2d3e 7a5d e03e 2d7a 8840 2181 9f3f
00000090: 1d1d 5841 be12 1e41 02cf 2440 edc6 4340
000000a0: 055a 6940 bc46 9940 46f9 8442 639e bb41
000000b0: 0e78 3843 3a4e ff42 a665 a33c 7c04 ee40
000000c0: a8df 5740 7711 233e 6bf7 a242 537a ab41
000000d0: f530 4743 a5a8 4e43 67e1 2342 a912 f241
000000e0: f390 1540 3f32 b240 d1ee eb3f 5373 1040
000000f0: 62e7 8b3f d9ef 6f40 5a24 da41 4678 e041
00000100: b264 3b41 3445 3f41 206b 6941 3b6d 7141
00000110: 2ca7 7141 e932 1c42 fef7 b842 9dc2 c542
00000120: 5145 1f40 7565 0b40 1be8 2341 109c 9c40
00000130: 5086 0c42 4297 ac41 517c 4d40 521d bd40
00000140: c9ae a741 1c95 c33f 6c09 8442 ba8e 2741
00000150: 1e1d 7f42 f115 c942 fc43 5843 4ffc 5143
00000160: 36d4 f340 e365 973f a74c fa40 ac4a f241
00000170: dea0 ba40 76bd 0c42 df8a 3542 2070 6342
00000180: 5f98 0340 0652 4c3e ad74 0441 3730 6740
00000190: ed34 ff40 ad50 5541 3f8b 4341 bee2 8041
000001a0: fa92 9440 481a 7640 daa0 5841 5c71 b740
000001b0: 0927 a841 d0d3 b441 8e2d 3f41 9dc6 9341
000001c0: e8d9 df40 80e6 ac40 45c8 7241 4eca 9d40
000001d0: 2e3d 4b41 1896 9641 2ba6 5140 1320 e040
000001e0: f6c4 8541 7637 9e41 a8e9 8941 e9c0 1a41
000001f0: d63c d940 4c53 2e42 4c53 e042 53bb d042
00000200: 94d4 f740 4b27 e440 1ab1 5141 7f74 0341
00000210: c0a9 7940 c945 3e42 bdfa 4542 3aa3 4f42
00000220: dfe1 1f3d d127 453d a520 643d d438 553c
00000230: 2ec0 0f3d b7fe 0a3e 2ecd f23b 3f36 813d
00000240: 8094 0e41 6def 5a41 204f 3d41 9174 5641
00000250: bf9f a540 c264 4f42 78bf a242 9532 9142
00000260: 8f11 2040 3584 4640 4102 0641 d984 203f
00000270: 4ff1 a03f 904e 9340 c872 8740 2220 d940
00000280: 9f8c 933f a0a5 b440 3eed 6e40 a2e7 6540
00000290: 2c21 3440 d279 273f 83db 4733 7c72 ce32
000002a0: 44dc 8d40 9589 0040 b737 f740 9335 6440
000002b0: 01be 0f40 087f 0141 6a7b b142 167a af42
000002c0: 2dbb 3441 c376 3841 1f01 b041 475f c941
000002d0: 14bc bc40 cd5e be42 7a9a 1d43 f359 0943
000002e0: f806 a540 2ac4 6a40 90d7 0041 92be 8940
000002f0: 8ed5 9340 791e 2b40 3300 2341 1fd3 8340
00000300: e9a9 db41 377b d040 ed30 8d42 8059 da41
00000310: 4724 4c41 04ae 3843 b17f ac43 958e 9743
00000320: 30e1 2040 7465 9240 bbc1 2041 c84f 9240
00000330: cdc6 7441 ea4b 8e41 51c5 6b41 e5f7 4741
00000340: 57ff 583f 4cc5 1d40 6d9f bf3f 30a4 1e3f
00000350: 90ce 223f 50e1 8e3f 681a 6e40 c219 8f40
00000360: 6a26 3142 6e0f 4542 5954 1342 c6d7 c941
00000370: c933 ee41 cf51 d641 3e4a 6c42 c5eb ab42
00000380: 9810 3240 9985 3b40 697e 8b41 afcc ec40
00000390: e45a fd41 1c66 0242 1131 f641 62dc 1342
000003a0: ef32 8e40 8f55 9540 2b5c 9d40 3e8e 4c41
000003b0: ae89 a240 e73d 0d42 a171 1042 72f9 d541
000003c0: c1bd ed3e 2eb1 923f 49d3 4f3f 32cc c53f
000003d0: 12ad 1340 0e90 873f 397b fa3c 72df 873e
000003e0: 5a48 b240 344e bb40 11cd ca41 da54 4641
000003f0: 3b5d 7442 4e27 8a42 a5ef 4d42 d3b8 4842

exp_avg f4 [64]
1.5746694 0.35942364 -0.81285405 0.36032814 -0.39660257 -0.0144113675 -0.031503726 0.9496068
-1.2908876 0.046173066 -0.74346924 0.020373315 0.66097724 -0.9008386 0.7734065 -2.1472127
1.7174548 0.13495053 2.666893 0.15717906 0.6892713 2.5924737 -0.9254328 -0.6295515
1.4727479 1.1307063 -0.97071826 1.0557016 -1.1619419 -1.6774619 0.5364132 1.6649699
0.82785225 1.1582376 0.59153414 -0.8028162 0.9337379 -1.4924501 -0.30706924 5.3064046
-0.505873 1.4829912 0.6823281 -0.48851812 0.18578184 -0.2066515 -0.3958558 0.14350456
0.9000116 -1.8331695 1.2258817 -0.7676054 -1.0171794 -3.6481519 0.62275976 -0.02924945
-0.6760385 0.4604801 -1.0769138 0.9354583 -0.513702 0.40172595 -0.5171222 -0.33338135
00000000: c48e c93f 6006 b83e 3417 50bf ee7c b83e
00000010: 7e0f cbbe a81d 6cbc 0d0a 01bd 6e19 733f
00000020: ce3b a5bf f81f 3d3d 0054 3ebf f0e5 a63c
00000030: ce35 293f 5c9d 66bf f8fd 453f ef6b 09c0
00000040: 8fd5 db3f 7930 0a3e 60ae 2a40 8cf3 203e
00000050: 1574 303f 17eb 2540 2ae9 6cbf 492a 21bf
00000060: 0183 bc3f fcba 903f fe80 78bf 3b21 873f
00000070: 83ba 94bf 12b7 d6bf 6052 093f bc1d d53f
00000080: 20ee 533f 2141 943f c86e 173f 5d85 4dbf
00000090: 7209 6f3f 9b08 bfbf 2e38 9dbe 11ce a940
000000a0: e580 01bf a8d2 bd3f 0ead 2e3f 0c1f fabe
000000b0: 983d 3e3e 739c 53be 9dad cabe dcf2 123e
000000c0: 2967 663f 4ca5 eabf b1e9 9c3f ca81 44bf
000000d0: ef32 82bf 527b 69c0 2f6d 1f3f 8b9c efbc
000000e0: dc10 2dbf 0cc4 eb3e 50d8 89bf 327a 6f3f
000000f0: f981 03bf 06af cd3e 1f62 04bf f6b0 aabe

exp_avg_sq f4 [64]
127.648476 38.78021 28.276114 21.091537 6.5861382 55.277588 84.320145 41.099476
133.01057 17.696667 257.44373 101.86903 24.319744 30.483616 22.055956 149.31282
70.691956 0.14222991 109.140945 10.203833 5.722925 104.42298 190.08931 21.849648
399.73026 30.502756 9.130718 158.69751 53.801273 50.812653 4.0093617 84.20624
108.025536 21.146534 43.279312 8.871465 34.952583 56.022194 7.388711 444.1727
27.884865 47.418888 48.16138 10.578891 6.474582 9.034681 11.757581 41.190945
100.31719 143.42502 32.751503 57.596416 24.872265 202.7793 14.351824 14.358155
15.183179 103.680405 43.938614 44.298206 37.314465 17.184374 45.506634 87.13116
00000000: 054c ff42 ef1e 1b42 7b35 e241 78bb a841
00000010: a5c1 d240 401c 5d42 eaa3 a842 dd65 2442
00000020: b502 0543 c692 8d41 ccb8 8043 f2bc cb42
00000030: d68e c241 72de f341 9972 b041 1550 1543
00000040: 4862 8d42 b8a4 113e 2a48 da42 e642 2341
00000050: 3422 b740 91d8 d042 dd16 3e43 14cc ae41
00000060: 79dd c743 a505 f441 6c17 1241 90b2 1e43
00000070: 8134 5742 2840 4b42 b14c 8040 9869 a842
00000080: 130d d842 1a2c a941 041e 2d42 85f1 0d41
00000090: 72cf 0b42 ba16 6042 5270 ec40 1b16 de43
000000a0: 3414 df41 f1ac 3d42 41a5 4042 2343 2941
000000b0: c72f cf40 0e8e 1041 0d1f 3c41 87c3 2442
000000c0: 67a2 c842 ce6c 0f43 8a01 0342 bb62 6642
000000d0: 66fa c641 80c7 4a43 12a1 6541 01bb 6541
000000e0: 4dee 7241 5e5c cf42 24c1 2f42 5d31 3142
000000f0: 0342 1542 9979 8941 cb06 3642 2743 ae42

exp_avg f4 [64, 64]
-0.0037472285 -0.025135618 -0.05947965 -0.0014477889 -0.052004192 -0.019924177 0.00047611122 -0.08363343
0.0148220435 0.020431649 0.024820516 -0.01866986 -0.021485567 -0.031746853 0.015762815 0.021733508
0.01512004 6.3143113e-24 -0.013523405 0.0100927595 -0.006403873 0.041703712 0.04009961 0.0043303096
0.024177939 -0.045186687 -0.03994699 -0.07504912 -0.02924974 -0.039537165 -0.010583173 0.042536177
0.021230804 -0.021056404 0.013340337 -0.009564835 -0.013429564 0.049039777 0.030137587 0.028063565
-0.10117384 0.047983855 -0.048523847 -0.0025416634 0.010501169 -0.019990696 0.029472623 -0.0461073
0.030212594 -0.0035229647 -0.023156025 -0.010936106 -0.062634006 -0.012292905 -0.0018457697 -0.022590892
-0.011573758 0.0023768218 -0.071757995 -0.07011049 0.020634022 -0.016497368 0.010105107 -0.004379928
-0.050533306 0.00021487099 -0.08129897 -0.023347909 -0.039743148 -0.02049582 -0.0014842158 -0.09625002
0.004935016 -0.009474334 -0.06839276 -0.006553156 -0.07059881 -0.053689886 0.014490474 0.0015900496
0.00043801573 -0.009732175 0.017493999 -0.025315478 -0.0066794734 -0.01178299 0.026275909 -0.003939874
-0.058882292 -0.014368413 -0.037440486 -0.07491567 -0.069624424 -0.041662212 -0.0051770834 -0.016096586
-0.036014423 -0.0077172373 -0.0813462 -0.025892656 -0.026174769 0.0045533115 0.045186177 0.015926868
-0.07917908 -0.01092905 -0.027775414 -0.012645269 0.01629725 -0.050725862 0.0056695114 -0.056687977
-0.027808785 -0.0072314967 -0.027235987 -0.07483634 -0.043883022 -0.019249493 -0.019200621 -0.030511487
-0.015738271 0.0016461749 -0.07137451 -0.08171748 0.02351949 -0.011707088 -0.0120348185 -0.037002146
-0.07313301 -0.040987898 -0.19233528 0.00921868 -0.042185638 0.0031425739 -0.000102135295 -0.11196876
-0.10970728 0.029372593 -0.16970368 0.0047148103 -0.07368178 -0.13444585 0.02539043 -0.030372567
-0.010208957 0.003941854 -0.021643672 -0.0003972113 -0.0060393135 0.059360877 0.020819113 0.0038396264
-0.12523422 0.005933977 -0.14116558 0.00052374415 -0.21697128 -0.105882786 0.0017924419 -0.104852915
-0.05654523 0.0140346 -0.14204647 -0.0032032006 -0.0048159515 -0.006810358 0.033596233 0.030513557
-0.060883176 -0.12103276 -0.18977195 0.010310974 0.01034947 -0.006375609 -0.0016154541 -0.24151516
-0.18991382 -0.04682837 -0.09955694 -0.16011691 -0.096751526 -0.010425942 0.051842522 -0.24604307
-0.0071891327 0.031793654 -0.16639096 -0.22401959 0.038824648 0.011084836 0.0024727935 0.025594907
-0.016618494 -0.015424486 -0.013854938 0.05113438 -0.033856627 0.0009653898 -0.0021681539 -0.04477783
-0.014852081 0.021948664 -0.016118051 0.04176872 -0.0022409132 -0.02077665 -0.023566952 -0.019332236
0.04803696 0.034150273 -0.023870787 0.06364806 -0.007527564 0.036959574 0.06702964 -0.0014869388
0.075951055 -0.049271274 -0.037949022 -0.05311649 -0.0059185186 -0.0029577143 0.028988823 -0.008574216
0.0022683267 0.013642448 0.02486953 0.0131430505 -0.0066851457 0.06298655 -0.014437544 0.019631812
-0.050527602 0.06484809 -0.03794917 0.051391475 -0.011126055 -0.0018962909 -0.05067718 -0.011485976
-0.03789164 -0.03874159 0.020866461 -0.009122803 -0.045981493 0.015048296 0.026540011 -0.0017234781
0.045669172 0.03889268 -0.032263648 -0.024743645 0.001089585 0.046953063 0.0007845728 0.014847026
00000000: 1094 75bb 36e9 cdbc efa0 73bd bcc3 bdba
00000010: 5902 55bd 0738 a3bc 919e f939 0148 abbd
00000020: 28d8 723c 4660 a73c 6554 cb3c 89f1 98bc
00000030: 8002 b0bc fd08 02bd 0521 813c 780a b23c
00000040: 0bba 773c e945 f418 4691 5dbc 1a5c 253c
00000050: 95d7 d1bb 83d1 2a3d 7d3f 243d 45e5 8d3b
00000060: d010 c63c ad15 39bd 749f 23bd 5ab3 99bd
00000070: 279d efbc b9f1 21bd 0b65 2dbc 6a3a 2e3d
00000080: 39ec ad3c 7b7e acbc 6e91 5a3c d3b5 1cbc
00000090: ad07 5cbc efdd 483d 1ae3 f63c 90e5 e53c
000000a0: 3b34 cfbd b88a 443d f1c0 46bd 0992 26bb
000000b0: 180d 2c3c 87c3 a3bc 9270 f13c 02db 3cbd
000000c0: 6780 f73c 8ae1 66bb b4b1 bdbc 5a2d 33bc
000000d0: 4246 80bd 2e68 49bc c1ed f1ba 8910 b9bc
000000e0: dc9f 3dbc 74c4 1b3b dbf5 92bd 1796 8fbd
000000f0: ae08 a93c 7d25 87bc e48f 253c 8085 8fbb
00000100: 03fc 4ebd fe4e 6139 1380 a6bd 1d44 bfbc
00000110: b6c9 22bd dae6 a7bc 058a c2ba bb1e c5bd
00000120: eab5 a13b 3d3a 1bbc 8111 8cbd dbbb d6bb
00000130: 1c96 90bd ede9 5bbd 7469 6d3c 3669 d03a
00000140: 7aa5 e539 b373 1fbc 934f 8f3c 6862 cfbc
00000150: 7cdf dabb 710d 41bc 9340 d73c 0f1a 81bb
00000160: 8f2e 71bd 7e69 6bbc 325b 19bd 636d 99bd
00000170: 4097 8ebd ffa5 2abd 86a4 a9bb fddc 83bc
00000180: dc83 13bd e1e0 fcbb d698 a6bd d61c d4bc
00000190: 786c d6bc f233 953b 2415 393d 1079 823c
000001a0: a428 a2bd c20f 33bc 4489 e3bc 1a2e 4fbc
000001b0: cf81 853c ecc5 4fbd 4fc7 b93b a731 68bd
000001c0: 40cf e3bc 31f6 ecbb 011e dfbc cc43 99bd
000001d0: afbe 33bd 1db1 9dbc 9f4a 9dbc 3af3 f9bc
000001e0: 8ced 80bc 77c4 d73a cd2c 92bd 7f5b a7bd
000001f0: f2ab c03c 16cf 3fbc b02d 45bc 908f 17bd
00000200: c2c6 95bd ede2 27bd 8af3 44be f209 173c
00000210: d9ca 2cbd a4f3 4d3b 7831 d6b8 e14f e5bd
00000220: 36ae e0bd cb9e f03c cdc6 2dbe b27e 9a3b
00000230: 79e6 96bd 2cac 09be 97ff cf3c e4cf f8bc
00000240: 7843 27bc ab2a 813b 124e b1bc cc40 d0b9
00000250: 6fe5 c5bb 6424 733d d88c aa3c 3ea2 7b3b
00000260: 663d 00be cf71 c23b b68d 10be e04b 093a
00000270: b82d 5ebe 13d9 d8bd 5ff0 ea3a 20bd d6bd
00000280: f99b 67bd 61f1 653c a174 11be caec 51bb
00000290: 21cf 9dbb 6c29 dfbb 349c 093d 91f7 f93c
000002a0: a360 79bd 06e0 f7bd 9453 42be 5cef 283c
000002b0: d390 293c 7cea d0bb a5bd d3ba c04f 77be
000002c0: c578 42be 1bcf 3fbd 82e4 cbbd b0f5 23be
000002d0: aa25 c6bd 92d1 2abc d358 543d b7f2 7bbe
000002e0: d192 ebbb 103a 023d 6462 2abe 6465 65be
000002f0: 9806 1f3d 2c9d 353c 970e 223b 69ac d13c
00000300: 8223 88bc fcb6 7cbc d2ff 62bc 4972 513d
00000310: 3fad 0abd 3612 7d3a 9617 0ebb f568 37bd
00000320: 2556 73bc afcd b33c 010a 84bc ad15 2b3d
00000330: 49dc 12bb cb33 aabc 7b0f c1bc a35e 9ebc
00000340: 67c2 443d 28e1 0b3d ab8c c3bc ea59 823d
00000350: c9a9 f6bb ec62 173d d646 893d 63e5 c2ba
00000360: 3a8c 9b3d add0 49bd 6f70 1bbd ad90 59bd
00000370: 22f0 c1bb 36d6 41bb f879 ed3c de7a 0cbc
00000380: 35a8 143b 9384 5f3c 2fbb cb3c f355 573c
00000390: 110f dbbb 18ff 803d 738b 6cbc e5d2 a03c
000003a0: 08f6 4ebd 13cf 843d 9770 1bbd de7f 523d
000003b0: 0f4a 36bc f78c f8ba e092 4fbd ad2f 3cbc
000003c0: 4434 1bbd 80af 1ebd 24f0 aa3c cf77 15bc
000003d0: 1757 3cbd 218d 763c 706a d93c 54e6 e1ba
000003e0: 990f 3b3d ee4d 1f3d e326 04bd 2fb3 cabc
000003f0: 68d0 8e3a db51 403d caab 4d3a f140 733c

exp_avg_sq f4 [64, 64]
0.28568345 0.17189474 0.8518341 0.030054146 0.4362176 0.1614142 0.114640936 1.5200502
0.12367384 0.083510906 0.060319114 0.008560711 1.469693 0.9374547 0.2297171 0.19334371
0.043815628 0.00022058722 0.31685522 0.0044553634 0.00026890027 0.07807545 0.040711947 0.033859815
0.022322882 0.5368159 0.27634972 0.538008 0.65479815 0.06284681 0.010247418 0.3724193
0.14227432 0.12512164 1.1171073 0.0056995023 0.11614747 0.1834204 0.65778524 0.09978413
0.5039691 0.18143666 0.08432835 0.007729902 0.10570622 1.1731122 0.24042703 0.11814728
0.6109502 0.31221318 0.07589474 0.91097975 0.10714151 0.009916099 0.33615667 0.08391725
0.00070004276 0.0006217575 0.771244 0.5471757 0.17083892 0.0635777 0.15129058 0.5060389
0.6631456 0.09498069 1.8610855 0.0063949293 0.93916196 0.11728028 0.24998306 2.9516068
0.22608519 0.08958557 0.33033305 0.000620651 2.8041832 2.0075338 0.14572278 0.22898385
0.06075578 0.0015805176 0.2727207 0.015901595 0.0002214384 0.07660229 0.06076903 0.014793591
0.17612961 0.23379338 0.5792616 1.1032946 1.6633219 0.057607498 0.0028550304 0.7916335
0.37225932 0.03559975 2.3261533 0.012062027 0.25450498 0.13688216 1.3338753 0.03550605
1.0520037 0.43898788 0.23891793 0.0014008475 0.03012677 2.4935822 0.33853182 0.45021844
1.6434944 0.59372663 0.19997011 2.1786475 0.21246383 0.02260604 0.25205272 0.41012385
0.00055898604 0.0006077514 1.596421 1.3795443 0.088284105 0.015518823 0.31663087 0.6574061
0.39363888 0.35256347 1.7701287 0.035684105 0.44796905 0.10182588 0.11959876 1.7383347
0.34774452 0.09671897 0.6534809 0.010269623 1.735156 1.3865938 0.2177882 0.39581114
0.3946494 0.05120537 0.34377304 0.035842635 0.007185704 0.1722134 0.3872256 0.034626443
0.98674023 0.41730243 0.532343 0.6984197 1.4467427 0.3743757 0.042139318 0.9547642
0.3640189 0.354762 2.4852252 0.36057603 0.1496666 0.42761418 0.7309755 0.23676077
0.56602323 1.477248 0.53444344 0.04384736 0.08922718 1.1971558 0.41432205 0.8044549
1.4900151 0.3783748 0.39657044 1.5313115 0.18788902 0.33701918 0.31268755 0.8417184
0.4640909 0.21868746 1.3330644 1.2425209 0.14052281 0.33398995 0.15957226 0.49458304
0.18483569 0.20955618 0.46634626 0.027314344 0.27157193 0.10503017 0.07019307 0.8967789
0.06510871 0.06408522 0.066470936 0.005535133 0.8500915 0.5671285 0.120437965 0.12613182
0.11041128 0.050084498 0.22750075 0.024317324 0.007244862 0.051033605 0.10678039 0.024849907
0.051870648 0.2743078 0.14935978 0.30727938 0.36720935 0.2652556 0.04522614 0.23924448
0.055654224 0.33410516 0.6795207 0.29937023 0.05120719 0.11495006 0.4142071 0.11397843
0.35715047 0.23612566 0.14533378 0.038016077 0.05705065 0.72517306 0.15945734 0.08641624
0.4200722 0.18901174 0.090963095 0.5399943 0.09365101 0.2661664 0.15057087 0.09559847
0.46787643 0.14342275 0.44008365 0.27108133 0.09102736 0.32497984 0.09981028 0.3076666
00000000: 1a45 923e 2d05 303e cd11 5a3f 1d34 f63c
00000010: ea57 df3e c449 253e dec8 ea3d 0191 c23f
00000020: b648 fd3d c407 ab3d 2d11 773d 3942 0c3c
00000030: e61e bc3f 08fd 6f3f f63a 6b3e e5fb 453e
00000040: 0478 333d 6e4d 6739 d93a a23e 4cfe 913b
00000050: 2ffb 8c39 06e6 9f3d 92c1 263d 97b0 0a3d
00000060: 7ade b63c c46c 093f b67d 8d3e e4ba 093f
00000070: daa0 273f d4b5 803d c9e4 273c bead be3e
00000080: 5cb0 113e e31f 003e 5ffd 8e3f e4c2 ba3b
00000090: bade ed3d 8fd2 3b3e 9d64 283f 9f5b cc3d
000000a0: 1e04 013f 88ca 393e 58b4 ac3d 1e4b fd3b
000000b0: 817c d83d 8a28 963f 8132 763e 33f7 f13d
000000c0: 3b67 1c3f 68da 9f3e b46e 9b3d f835 693f
000000d0: 026d db3d 2277 223c ba1c ac3e cfdc ab3d
000000e0: 1383 373a 71fd 223a 3f70 453f b513 0c3f
000000f0: 66f0 2e3e 0635 823d ebeb 1a3e c48b 013f
00000100: e9c3 293f 3c85 c23d 0d38 ee3f 8e8c d13b
00000110: eb6c 703f a530 f03d 8ffb 7f3e 20e7 3c40
00000120: e082 673e a478 b73d 6a21 a93e 2fb3 223a
00000130: bd77 3340 6f7b 0040 5a38 153e be7a 6a3e
00000140: 0edb 783d 5f29 cf3a 0ca2 8b3e 1044 823c
00000150: eb31 6839 a9e1 9c3d f2e8 783d d160 723c
00000160: 525b 343e 8867 6f3e 7d4a 143f c238 8d3f
00000170: bbe7 d43f d7f5 6b3d 761b 3b3b 7ea8 4a3f
00000180: c698 be3e 0bd1 113d b2df 1440 cf9f 453c
00000190: 7a4e 823e d62a 0c3e 6dbc aa3f cb6e 113d
000001a0: 0fa8 863f 05c3 e03e e7a6 743e a49c b73a
000001b0: 6acc f63c da96 1f40 0b54 ad3e 0883 e63e
000001c0: 065e d23f 78fe 173f f7c4 4c3e f66e 0b40
000001d0: 1e90 593e 4d30 b93c 0e0d 813e c1fb d13e
000001e0: eb88 123a 8251 1f3a 8657 cc3f e894 b03f
000001f0: 4cce b43d a942 7e3c 711d a23e c44b 283f
00000200: 098b c93e 3383 b43e 9493 e23f 7f29 123d
00000210: 335c e53e 168a d03d 32f0 f43d c081 de3f
00000220: 920b b23e 9814 c63d 864a 273f ec41 283c
00000230: 9819 de3f e87b b13f df03 5f3e c2a7 ca3e
00000240: 7c0f ca3e b9bc 513d 0503 b03e bacf 123d
00000250: 0e76 eb3b b658 303e 6f42 c63e 75d4 0d3d
00000260: 029b 7c3f aaa8 d53e a147 083f a2cb 323f
00000270: dd2e b93f 2cae bf3e 479a 2c3d 6d6b 743f
00000280: af60 ba3e 5da3 b53e ee0d 1f40 6c9d b83e
00000290: 3442 193e 3ff0 da3e 3621 3b3f 6a71 723e
000002a0: e6e6 103f 7616 bd3f 49d1 083f 4a99 333d
000002b0: bdbc b63d 673c 993f 0522 d43e c2f0 4d3f
000002c0: d1b8 be3f 57ba c13e 480b cb3e 0402 c43f
000002d0: fb65 403e c78d ac3e 9518 a03e db7a 573f
000002e0: 539d ed3e 9bef 5f3e dba1 aa3f ed0a 9f3f
000002f0: 36e5 0f3e bb00 ab3e e966 233e fd39 fd3e
00000300: 9145 3d3e e595 563e f0c4 ee3e 55c2 df3c
00000310: 7a0b 8b3e 0f1a d73d 62c1 8f3d 4d93 653f
00000320: b757 853d 1d3f 833d ea21 883d 1060 b53b
00000330: 999f 593f 552f 113f 2ea8 f63d b328 013e
00000340: 4f1f e23d 6725 4d3d f5f5 683e 2035 c73c
00000350: 4f66 ed3b 9d08 513d adaf da3d 0892 cb3c
00000360: 5176 543d 1272 8c3e c5f1 183e b953 9d3e
00000370: dd02 bc3e 95cf 873e 0c3f 393d 81fc 743e
00000380: aff5 633d d50f ab3e 12f5 2d3f 0e47 993e
00000390: a1be 513d f06a eb3d f412 d43e 866d e93d
000003a0: 6ddc b63e edca 713e 61d2 143e bfb6 1b3d
000003b0: f1ad 693d f1a4 393f c948 233e fffa b03d
000003c0: b413 d73e 4b8c 413e dc4a ba3d 113d 0a3f
000003d0: 1acc bf3d f646 883e 402f 1a3e 21c9 c33d
000003e0: 808d ef3e 6add 123e a552 e13e 2ccb 8a3e
000003f0: 8d6c ba3d c263 a63e 5569 cc3d 7a86 9d3e

exp_avg f4 [64]
-0.0034081137 -0.037029825 -0.08704969 0.010480663 6e-45 -0.018935235 6e-45 -0.020033661
0.030716566 6e-45 -0.031093715 6e-45 0.024666026 -0.17193702 6e-45 6e-45
6e-45 -0.02628132 -0.03368394 -0.21391483 -0.41134658 0.04682422 -0.04590299 0.21452153
-0.00066462 0.0968076 6e-45 -0.04325601 6e-45 -0.04825224 -0.025634177 -0.030106705
0.26309296 0.11604402 0.032621175 -0.04706997 -0.11951144 0.23130378 0.0036718354 6e-45
-0.0067547434 0.058575783 -0.017600292 -0.029587377 -0.053137306 0.025492502 0.08693339 -0.049759075
0.34680808 0.13307612 -0.051858943 -0.06654949 0.09698225 -0.07537852 -0.049617346 0.20010205
6e-45 -0.0025302067 0.12953748 -0.081020884 0.0 0.17608348 0.11861035 0.02543342
00000000: a95a 5fbb 96ac 17bd 1c47 b2bd 16b7 2b3c
00000010: 0400 0000 111e 9bbc 0400 0000 a21d a4bc
00000020: 4fa1 fb3c 0400 0000 3fb8 febc 0400 0000
00000030: 6810 ca3c 4210 30be 0400 0000 0400 0000
00000040: 0400 0000 ec4b d7bc 2cf8 09bd 7d0c 5bbe
00000050: 059c d2be c1ca 3f3d c604 3cbd 88ab 5b3e
00000060: e539 2eba 1043 c63d 0400 0000 372d 31bd
00000070: 0400 0000 24a4 45bd c4fe d1bc 56a2 f6bc
00000080: 1fb4 863e 7da8 ed3d c89d 053d 71cc 40bd
00000090: 6ac2 f4bd e6da 6c3e 2da3 703b 0400 0000
000000a0: e556 ddbb 29ed 6f3d 7d2e 90bc 3a61 f2bc
000000b0: 81a6 59bd a7d5 d03c 220a b23d 2cd0 4bbd
000000c0: d490 b13e 1b45 083e 0b6a 54bd 194b 88bd
000000d0: a19e c63d 0e60 9abd 8f3b 4bbd 8de7 4c3e
000000e0: 0400 0000 d3d1 25bb 79a5 043e 47ee a5bd
000000f0: 0000 0000 3a4f 343e fce9 f23d bf59 d03c
